python/models/model.pt (torch, 136023 bytes, 6 tensors)

layer1.weight f4 [128, 124]
0	0xbea87d47	-0.3290808
1	0xbe7eecad	-0.24894972
2	0x3daca5f7	0.08430093
3	0xbda9ec68	-0.08297044
4	0x3b6075fd	0.0034250014
5	0xbc284243	-0.010269704
6	0x3cb6f014	0.022331275
7	0xbd38be71	-0.045103494
8	0x3d0a9ca0	0.033840775
9	0x3c4379e1	0.011930914
10	0xbd8211ef	-0.06351077
11	0xbd5e0fa4	-0.054214135
12	0xbd505ac4	-0.05086781
13	0xbd27ceb3	-0.040968608
14	0xbd3033b9	-0.043018077
15	0xbd3120b8	-0.043244094
16	0xbd880948	-0.06642395
17	0xbdb60318	-0.08887309
18	0x3d077239	0.033067916
19	0xbcb61aa2	-0.022229496
20	0x3c19bc2b	0.009383242
21	0x3cd53f43	0.026031142
22	0xbc355ee9	-0.011069992
23	0xbd0d3004	-0.03446962
24	0xbd0eb848	-0.034843713
25	0x3d929a03	0.07158282
26	0x3d7f183d	0.062278975
27	0xbd67557f	-0.05647802
28	0xbb940bf0	-0.0045180246
29	0x3a9d80a4	0.0012016487
30	0x3d63f7fb	0.055656414
31	0x3d93df2a	0.072202995
32	0x3d6d13f7	0.057880368
33	0x3cf6d835	0.030132392
34	0x3d251bc0	0.040309668
35	0x3d1f5c5b	0.038906436
36	0xbdc4d3d7	-0.09610718
37	0xbd9df938	-0.0771355
38	0x3dadb63a	0.084820226
39	0xbca20d15	-0.019781629
40	0xbc57c353	-0.0131691275
41	0xbdd9dded	-0.10638032
42	0xbc893ef4	-0.016753651
43	0x3cce9148	0.02521576
44	0x3ca5a019	0.020217942
45	0x3da201e0	0.07910514
46	0x3c22cc64	0.009936426
47	0x3cc4875e	0.02399033
48	0x3d290549	0.041264806
49	0xbd81250d	-0.06305895
50	0x3d8dd3c6	0.06925158
51	0x3daa438a	0.08313663
52	0x3d804c2a	0.06264527
53	0xbdb9c6a3	-0.0907109
54	0x3d4f31dd	0.050584663
55	0x3c10fea2	0.008849772
56	0xbd4df559	-0.05028281
57	0xbd939191	-0.07205499
58	0x3d203eb2	0.03912229
59	0x3d7e5371	0.062091295
60	0xbd2b4315	-0.04181202
61	0x3da78810	0.08180249
62	0x3d06d242	0.03291536
63	0xbc3ff905	-0.011717086
64	0xbdd4fbad	-0.10399566
65	0x39cd101a	0.00039112644
66	0xbd472457	-0.04861864
67	0xbd92804e	-0.071533784
68	0x3da64765	0.08119086
69	0xbc1e67e3	-0.009668323
70	0x3cbe47ce	0.023227599
71	0xbbe65ac7	-0.0070298645
72	0xbcec832b	-0.02887114
73	0x3d1a3bd1	0.0376547
74	0x3d755f26	0.059905194
75	0x3d8de407	0.069282584
76	0xbbfba8ed	-0.0076800496
77	0xbba4f0d0	-0.00503359
78	0x3bdcd5d3	0.006739357
79	0x3c928563	0.01788587
80	0x3db7eed9	0.089811035
81	0x3d91c216	0.07117097
82	0xbd650d37	-0.055920806
83	0x3cdbf0ee	0.026848283
84	0xbcab22c8	-0.020890608
85	0x3d7783a1	0.060428265
86	0x3d01d051	0.031692807
87	0xbbf88d99	-0.007585239
88	0x3d9c7317	0.07639139
89	0x3c0563f7	0.008141509
90	0x3cfaba04	0.030606277
91	0xbaf47c6f	-0.0018652807
92	0x392307c2	0.00015547781
93	0xbd3949ee	-0.04523652
94	0xbc17a16d	-0.0092547955
95	0xbc7f8646	-0.015595978
96	0x3d7f1c7f	0.062283035
97	0xbd2b75f0	-0.04186052
98	0xbd37631d	-0.044772256
99	0xbd67652f	-0.05649298
100	0xbcecc0f3	-0.0289006
101	0xbd40671d	-0.046973336
102	0x3d7d5f83	0.061858665
103	0x3b0353d9	0.002003899
104	0xbcb96737	-0.022632224
105	0xbb821cb4	-0.003970707
106	0x3cdcaef3	0.026938891
107	0x3da17702	0.07884027
108	0x3affe706	0.0019523806
109	0xbbf9d621	-0.007624403
110	0xbc88d264	-0.016701885
111	0x3c21adb6	0.009868076
112	0x3cdaf7ce	0.02672949
113	0x3b007a9c	0.001960433
114	0xbcf501de	-0.029908117
115	0xbb987da7	-0.004653651
116	0xbd023c0e	-0.031795554
117	0x3d64dfbb	0.05587743
118	0xbc5444a9	-0.012955823
119	0xbd01a5d7	-0.031652298
120	0xbd711c45	-0.05886485
121	0x3af8ce60	0.0018982403
122	0x3dac971f	0.084272616
123	0x3d24dea3	0.040251385
124	0xbe8c9339	-0.27456072
125	0xbe1cb996	-0.1530517
126	0x3d63dacc	0.055628583
127	0xbd7f714b	-0.062363904
128	0xbd4d575a	-0.050132133
129	0x3dfddbf3	0.123954676
130	0xbc869eb4	-0.016433097
131	0x3cce2c7c	0.025167696
132	0x3a1e6604	0.0006042423
133	0xbcfd3774	-0.030910231
134	0xbc59c787	-0.0132922
135	0xbd9bf8a0	-0.07615781
136	0x3d7bf9c2	0.061517484
137	0xbd760c65	-0.060070414
138	0xbcf324f2	-0.029680703
139	0xbd9ef747	-0.07762008
140	0xbd1fda2b	-0.03902642
141	0xbdb98b5d	-0.090597846
142	0xbd48047b	-0.048832398
143	0x3cae07c6	0.021243941
144	0xbd0044e0	-0.031315684
145	0xbbe54993	-0.006997296
146	0x3e271123	0.16315131
147	0xbd4fcb60	-0.050731063
148	0xbd80e896	-0.06294362
149	0x3d906949	0.070513315
150	0xbc8de279	-0.017319905
151	0x3dd88056	0.10571353
152	0x3cac0ae9	0.021001296
153	0xbce24909	-0.027622717
154	0x3e1fbeb4	0.15600091
155	0xbc6f742b	-0.014615099
156	0x3d0339ab	0.03203742
157	0x3c5e8792	0.013582127
158	0x3d69e357	0.057101574
159	0xbd2ee99d	-0.04270326
160	0xbdba226e	-0.09088598
161	0x3ca948ce	0.020664599
162	0x3c13777e	0.009000657
163	0x3e114b12	0.14188793
164	0x3d7f3638	0.062307566
165	0xbce017b4	-0.027355053
166	0xbc88725d	-0.016656095
167	0xbcce34a8	-0.025171593
168	0x3c9f17dd	0.019420559
169	0x3d79b6fb	0.06096552
170	0x3ced53bc	0.028970592
171	0x3d719527	0.058980133
172	0x3d946570	0.0724591
173	0x3c97836e	0.018495288
174	0x3e1d3cd5	0.15355237
175	0xbc7f3578	-0.015576713
176	0x3d3e8339	0.046511862
177	0x3d3e1dd9	0.046415184
178	0x3de3f870	0.1113137
179	0x3e2a1533	0.1660965
180	0x3c578338	0.013153844
181	0x3bf2b41f	0.007406726
182	0xbd0abd63	-0.03387202
183	0xbcdc0888	-0.026859537
184	0x3d675cb1	0.05648488
185	0x3d14bf32	0.03631515
186	0x3ce8992d	0.028393352
187	0xbd84486c	-0.06459126
188	0x3e96526f	0.29359767
189	0x3d3d1b25	0.046168465
190	0x3d5a3169	0.053269777
191	0x3d419acf	0.047266778
192	0x3dd48c72	0.1037835
193	0xbd337e68	-0.043821722
194	0x3c3dc17f	0.011581778
195	0xbcbb97c4	-0.022899516
196	0x3d165233	0.036699485
197	0x3d09b6a4	0.033621445
198	0xbc2a072c	-0.0103776865
199	0xbcffebf2	-0.031240437
200	0x3c3f5e33	0.011680174
201	0xbcee978d	-0.029125
202	0x3b3a38d4	0.002841522
203	0x3be5cd3d	0.0070129917
204	0xbcc1fe0a	-0.023680706
205	0xbd64a995	-0.05582579
206	0x3cd66eda	0.026175905
207	0xbb3013da	-0.0026867301
208	0xbd0bd3fb	-0.034137707
209	0x3d9b4913	0.07582297
210	0x3d6f47c5	0.058418054
211	0xbcb92541	-0.022600772
212	0xbcb8e511	-0.022570165
213	0x3e22664a	0.15859333
214	0x3d6631ab	0.05619971
215	0xbd30b88f	-0.04314476
216	0x3d6bde59	0.057585094
217	0x3d7bc042	0.06146265
218	0x3d934749	0.07191331
219	0xbc219ff1	-0.009864793
220	0x3a9698c3	0.0011489618
221	0x3c450532	0.012025164
222	0x3cc9c508	0.024630085
223	0xbc95e00b	-0.018295309
224	0x3cdbbda6	0.02682383
225	0xbda9d965	-0.08293418
226	0xbdd1c14b	-0.10241946
227	0x3c547649	0.0129676545
228	0x3d71bace	0.05901604
229	0x3d0b7051	0.03404266
230	0xbd7ac87f	-0.061226364
231	0x3df58d13	0.119897984
232	0xbd8af1ab	-0.06784376
233	0x3c80fc9b	0.015745452
234	0x3d3137b5	0.043266017
235	0xbc91d1ad	-0.017800177
236	0xbc3b5c82	-0.01143563
237	0x3d5feeba	0.054671027
238	0x3d0888fb	0.03333376
239	0x3c277542	0.010220828
240	0xbccb0d65	-0.02478666
241	0x3c5ac697	0.013353012
242	0x3d23f3d6	0.040027462
243	0xbbcf8098	-0.0063324682
244	0x3cc9555c	0.024576835
245	0xbd857749	-0.065168925
246	0xbd5593d8	-0.052142948
247	0x3ceeabd5	0.02913467
248	0xbecf7b8d	-0.4052395
249	0xbe8330dd	-0.25623217
250	0x3d12b268	0.035814673
251	0xbcfc373f	-0.030788062
252	0x3d29f037	0.041488852
253	0xbbaef5cb	-0.0053393594
254	0x3d1e8bb7	0.03870746
255	0x3d8aa11b	0.0676901

layer1.bias f4 [128]
0	0xbe918f16	-0.28429478
1	0xbe266796	-0.16250452
2	0xbee7e9dc	-0.45295608
3	0x3e950196	0.29102772
4	0x3dfb2ead	0.12264762
5	0x3e155084	0.14581496
6	0xbea671db	-0.3250874
7	0x3e941f25	0.2893001
8	0xbe941917	-0.28925392
9	0x3dbbb168	0.09164697
10	0x3e02db66	0.12779006
11	0x3e1a0f2c	0.1504485
12	0x3ea1c50d	0.3159565
13	0x3e18af48	0.14910614
14	0xbc5f94bc	-0.013646301
15	0x3dddc842	0.10829212
16	0x3e5afdd0	0.21385884
17	0x3def9aa3	0.116994165
18	0x3eb701ab	0.3574346
19	0x3ed94f88	0.4244349
20	0x3ebba7fe	0.36651605
21	0xbec6308a	-0.38708907
22	0xbd999f6a	-0.07501109
23	0x3eaea4a6	0.34109992
24	0x3ea3c8cd	0.31989136
25	0xbe852aaf	-0.26009127
26	0x3ec8fcc5	0.39255348
27	0x3eda624a	0.42653114
28	0x3e918207	0.28419515
29	0x3e951958	0.29120898
30	0x3ed69b60	0.41915417
31	0xbe970753	-0.29497775
32	0x3e913f3e	0.28368562
33	0x3ec3bac9	0.38228443
34	0x3ecc98b3	0.3996025
35	0xbe40ffa5	-0.1884752
36	0x3dd56e0d	0.10421381
37	0x3e9ae2a7	0.30251047
38	0x3d304735	0.04303666
39	0x3eaa3b40	0.3324833
40	0xbe8e8be8	-0.27841115
41	0x3ecf1a5f	0.40449807
42	0x3e6e5351	0.2327397
43	0x3e142086	0.14465532
44	0x3da4e75c	0.08051941
45	0xbeba2cb6	-0.36362237
46	0x3e5e0153	0.21680193
47	0xbedfff43	-0.43749437
48	0x3e0f9688	0.14022267
49	0x3e9e55fd	0.3092498
50	0x3e08a0a1	0.13342525
51	0x3e799db8	0.24376571
52	0x3e5ed1bf	0.217597
53	0x3e7695d1	0.24080588
54	0xbec8f80a	-0.3925174
55	0xbebb922d	-0.3663496
56	0xbeb13cfc	-0.3461684
57	0xbcbe4340	-0.023225427
58	0xbbaa8df6	-0.0052049113
59	0x3d51c287	0.051210906
60	0x3ece7848	0.40326142
61	0x3e85493d	0.2603244
62	0xbe42ef52	-0.19036606
63	0x3ea22499	0.31668547
64	0x3e123e3c	0.14281553
65	0xbe6a0ed5	-0.2285722
66	0xbee2f0a6	-0.44324225
67	0xbd4a4264	-0.04937972
68	0xbe8f2c1a	-0.27963334
69	0x3e0e9356	0.13923392
70	0x3ecaef2c	0.396356
71	0x3e3e40e1	0.18579437
72	0x3e868da8	0.2627995
73	0x3e674eb6	0.2258862
74	0x3eda2b87	0.42611334
75	0x3ec5dc9c	0.38644874
76	0x3e70b625	0.23506983
77	0xbe72f25e	-0.23725268
78	0x3e84de64	0.2595092
79	0x3e1f6cbf	0.15568827
80	0xbeb23b38	-0.34810805
81	0xbeb31dcd	-0.34983674
82	0xbebe3504	-0.37149823
83	0x3ee25b83	0.44210443
84	0xbed8bf88	-0.42333627
85	0x3e9c7230	0.30555868
86	0xbe914d56	-0.28379315
87	0x3e5f2d3f	0.21794604
88	0xbe7ed006	-0.24884042
89	0xbeb44cde	-0.35214895
90	0x3ea444b5	0.3208367
91	0x3e2e62c9	0.17029871
92	0x3e9476f5	0.28997007
93	0x3e8b6cd8	0.2723148
94	0xbe4279d4	-0.18991786
95	0x3e90f3da	0.28311044
96	0x3e94015f	0.28907296
97	0x3ec71a90	0.38887453
98	0x3e8a23a9	0.26980332
99	0x3e1f482f	0.1555488
100	0x3e068084	0.13134962
101	0x3ebd758f	0.37003753
102	0x3e862705	0.26201645
103	0xbe9e307f	-0.30896375
104	0x3e99fdb1	0.30076364
105	0x3e465de1	0.1937175
106	0xbd9a942b	-0.07547792
107	0xbea8149e	-0.3282823
108	0xbeb6e79b	-0.35723576
109	0x3e28b274	0.16474324
110	0xbe7e2d4e	-0.2482197
111	0xbec47952	-0.3837381
112	0x3ec42d92	0.38316017
113	0x3ee16a5b	0.44026455
114	0x3ed764a6	0.42068976
115	0x3e3109c9	0.17288889
116	0x3ec05960	0.37568188
117	0xbe21e6f9	-0.15810765
118	0xbe82f713	-0.25579128
119	0x3e87bc1f	0.26510713
120	0x3e92b2e2	0.28652102
121	0xbdeeccb3	-0.11660137
122	0x3d90878d	0.07057104
123	0xbea4d348	-0.32192445
124	0x3d94d085	0.072663344
125	0x3d7a6731	0.061133567
126	0x3e987b35	0.297815
127	0x3eb93ddf	0.36180016

layer2.weight f4 [128, 128]
0	0x3de80361	0.113287695
1	0x3d1eb5d6	0.03874763
2	0x3f04b089	0.5183187
3	0xbec4db23	-0.38448438
4	0x3e0be491	0.1366141
5	0xbf3190ef	-0.69361776
6	0x3f0fb894	0.5614102
7	0x3e2e44bf	0.17018412
8	0x3c49a8d6	0.01230832
9	0x3cb77431	0.022394272
10	0x3cdfe48a	0.027330656
11	0x3e8a3d1d	0.2699975
12	0x3b64b973	0.0034900575
13	0x3e7be07a	0.2459735
14	0x3ea87d47	0.3290808
15	0xbd8787bb	-0.066176854
16	0x3cbb4d07	0.022863878
17	0xbe1550c8	-0.14581597
18	0xbdf508c7	-0.11964565
19	0xbef08af8	-0.46981025
20	0xbf3d98c9	-0.74061257
21	0x3de1069b	0.10987588
22	0x3ecd958b	0.40153155
23	0x3d18ab8a	0.037272967
24	0xbf0fc7f7	-0.561645
25	0x3df9b7c7	0.12193256
26	0xbf81aeee	-1.0131509
27	0xbee36c09	-0.44418362
28	0xbe0eb859	-0.1393751
29	0xbef5481f	-0.47906587
30	0xbded8c07	-0.11598974
31	0x3e1c6c3c	0.15275663
32	0xbc8bca1f	-0.017064152
33	0xbe457744	-0.19283777
34	0xbc41f98e	-0.011839284
35	0x3dd3a092	0.10333361
36	0x3d1121dd	0.035432685
37	0x3d98adad	0.07455001
38	0xbe17471d	-0.14773221
39	0xbcd02594	-0.025408544
40	0x3e0e8cc5	0.13920887
41	0xbf3ce7bb	-0.7379109
42	0xbcab6af7	-0.020925028
43	0x3dacae8d	0.084317304
44	0x3ad32155	0.0016107956
45	0x3e37dda5	0.17955644
46	0x3d912895	0.070878185
47	0x3efdb027	0.49548456
48	0x3d819b76	0.0632848
49	0x3d7fd031	0.062454406
50	0x3ccc861e	0.024966296
51	0xbf051320	-0.5198231
52	0x3df7d6e1	0.12101532
53	0xbead27f5	-0.33819547
54	0x3ef36819	0.47540358
55	0x3e21f0d1	0.1581452
56	0x3e631b5c	0.22178406
57	0x3eda1290	0.42592287
58	0x3e9913c4	0.29897892
59	0x3d91d2ea	0.07120307
60	0xbee6631a	-0.44997483
61	0x3c0be4ca	0.008538434
62	0x3e325842	0.1741648
63	0xbec8cf68	-0.39220738
64	0x3e87142a	0.2638257
65	0x3cd4a72e	0.025958624
66	0x3f19b6d2	0.60044587
67	0x3e9f736d	0.3114275
68	0x3e0b2d48	0.13591492
69	0xbf105884	-0.56385064
70	0xbcb3e8ff	-0.021961687
71	0x3e1cd1fe	0.1531448
72	0x3b879075	0.0041370937
73	0xbf17c6ec	-0.59287906
74	0xbe771220	-0.24128008
75	0xbc193048	-0.00934989
76	0xbc3b2574	-0.011422504
77	0x3c193b3a	0.0093525
78	0x3d9083c0	0.07056379
79	0xbcb2f04e	-0.021843102
80	0x3e2ecddb	0.17070715
81	0x3ee9cfda	0.4566639
82	0x3dee01c8	0.116214335
83	0xbf68e951	-0.9098101
84	0x3f116464	0.5679381
85	0xbe019e21	-0.12657978
86	0x3e024e0c	0.12725085
87	0xbf5a6f37	-0.8532595
88	0x3d532af0	0.05155462
89	0x3ef1fda2	0.4726382
90	0x3d9dc9e0	0.0770452
91	0xbf2e7f20	-0.6816273
92	0x3dbfe385	0.09369568
93	0xbad6da27	-0.0016391919
94	0x3e201493	0.15632848
95	0xbd89ae0f	-0.06722652
96	0xbda877fd	-0.08226011
97	0xbd81ead9	-0.06343622
98	0xbf3aaabd	-0.72916776
99	0xbd8dbf56	-0.0692126
100	0x3de7e33c	0.113226384
101	0xbd874ea4	-0.066067964
102	0x3dc349e5	0.09535579
103	0x3de561c9	0.11200292
104	0xbc25dda1	-0.010123641
105	0xbb439efa	-0.0029849396
106	0x3e6edae9	0.23325695
107	0x3df1b5a1	0.11802221
108	0x3f11be36	0.56930864
109	0x3e8c14cb	0.27359614
110	0x3e431d59	0.19054164
111	0x3dc89223	0.09793498
112	0xbdc5b724	-0.09654072
113	0xbe9a7677	-0.30168507
114	0xbf3c829f	-0.7363681
115	0xbe5e5a1a	-0.21714059
116	0xbdf70a60	-0.12062526
117	0x3e12c16d	0.14331599
118	0x3d870fcb	0.06594809
119	0x3d0cb3b6	0.034351073
120	0xbf21e87d	-0.63245374
121	0x3e8c23c7	0.27371046
122	0xbcf1b4d3	-0.029505169
123	0x3eb01c61	0.3439665
124	0x3e87fb32	0.26558834
125	0x3dc763ef	0.09735858
126	0x3cff255f	0.03114575
127	0xbf29150e	-0.6604775
128	0x3c733e6c	0.0148464255
129	0xbd19fd0a	-0.037594832
130	0xbec23c82	-0.3793679
131	0x3ed65014	0.4185797
132	0xbe1f6438	-0.15565574
133	0x3eedd35e	0.46450323
134	0xbef6164d	-0.4806389
135	0xbee04be0	-0.43807888
136	0x3ce85014	0.028358497
137	0xbf067ab1	-0.5253096
138	0xbef3728b	-0.47548327
139	0xbe981af5	-0.29708067
140	0x3d69e43d	0.05710243
141	0xbe88aeec	-0.26695955
142	0xbe85311d	-0.26014033
143	0xbef6a69b	-0.48173985
144	0x3d22dbfb	0.03976057
145	0xbee8d42a	-0.45474368
146	0xbebe1f3f	-0.37133214
147	0x3ec8ffb6	0.39257592
148	0x3efc3841	0.49261668
149	0xbe048a82	-0.12943462
150	0xbe883369	-0.26601723
151	0x3d4a998f	0.04946285
152	0x3ef22576	0.47294205
153	0xbdca960e	-0.09891902
154	0x3f17fc63	0.59369487
155	0x3f0e187e	0.5550612
156	0x3e0734da	0.13203755
157	0x3ebb8ea8	0.36632276
158	0x3d8a0539	0.067392774
159	0xbd5e3d96	-0.05425795
160	0xbebdf355	-0.3709971
161	0x3e0f535f	0.13996647
162	0x3e3369b8	0.17520797
163	0x3d82d01f	0.06387352
164	0xbef3538e	-0.47524685
165	0x3d281a2e	0.041040592
166	0x3ece8cb6	0.4034173
167	0x3d9700db	0.0737321
168	0x3d4d369e	0.050100915
169	0x3f0ca65e	0.54941356
170	0xbea2522e	-0.31703323
171	0xbead95f9	-0.33903483
172	0xbf203937	-0.625873
173	0xbcd4c9b1	-0.02597508
174	0xbed7192f	-0.420114
175	0xbec40fb5	-0.38293234
176	0xbeabed6c	-0.33579576
177	0x3e113dc9	0.14183725
178	0xbef9abdc	-0.4876393
179	0x3f1ac1aa	0.6045176
180	0xbe8e8111	-0.27832845
181	0xbec9fba8	-0.3944981
182	0xbeb8b0f0	-0.36072493
183	0xbdebb39d	-0.11508868
184	0xbdfb8521	-0.12281252
185	0xbec36e20	-0.38169956
186	0xbe9e1f0f	-0.3088307
187	0xbeabca98	-0.33553004
188	0x3ebf8312	0.37404686
189	0x3e00363f	0.12520693
190	0x3d8fd958	0.07023877
191	0x3edf036c	0.43557298
192	0xbe9f185a	-0.31073266
193	0xbda76c0f	-0.081749074
194	0xbf1e3f04	-0.61814904
195	0xbea9d5b8	-0.33170867
196	0xbd145745	-0.03621604
197	0x3ee14aca	0.44002372
198	0x3d385af8	0.04500863
199	0xbe90e777	-0.28301594
200	0xbedd2c7f	-0.4319801
201	0x3ef76c1e	0.48324674
202	0x3e753a13	0.23947935
203	0x3dcb89a3	0.099383615
204	0x3cadf766	0.021236133
205	0xbd178d27	-0.036999848
206	0x3c2a3bd2	0.010390239
207	0xbf08bcf2	-0.5341331
208	0xbdab6290	-0.08368409
209	0xbebf03f2	-0.37307698
210	0xbdbdf77e	-0.09275721
211	0x3f172589	0.5904165
212	0xbeea4e10	-0.45762682
213	0xbee954d7	-0.4557254
214	0xbddb04f1	-0.10694302
215	0x3f3d031e	0.7383288
216	0xbbe2f362	-0.006925986
217	0xbef4f5c9	-0.4784377
218	0x3de53e19	0.11193485
219	0x3ee380e2	0.44434267
220	0xbeff4153	-0.49854526
221	0x3e01d21f	0.12677811
222	0x3c01dc33	0.007926035
223	0xbeb264e3	-0.34842595
224	0x3e4979ae	0.19675323
225	0x3dcb6fcc	0.09933433
226	0x3ee8a582	0.45438772
227	0xbea1f0ab	-0.31628928
228	0xbeb4927b	-0.35268006
229	0x3d9d5edf	0.07684111
230	0xbec2a6bd	-0.38017836
231	0xbbf60655	-0.007508079
232	0x3d35b40e	0.044361167
233	0xbea134a6	-0.3148548
234	0xbe80a04f	-0.25122306
235	0x3c5740ea	0.013138035
236	0xbf0f8a1c	-0.56070113
237	0xbead918e	-0.33900112
238	0xbe66e06e	-0.2254655
239	0xbde4cbb2	-0.11171664
240	0x3e5aad6e	0.2135522
241	0x3eb6cba8	0.35702252
242	0x3f007837	0.50183433
243	0xbebf7e7a	-0.3740118
244	0x3e36074c	0.17776221
245	0x3d68f7a1	0.056876782
246	0x3d4094a5	0.04701676
247	0x3de2b937	0.11070483
248	0x3ef0b79d	0.47015086
249	0xbe41b029	-0.18914856
250	0xbf031808	-0.51208544
251	0xbeb10520	-0.34574223
252	0xbe41b817	-0.18917881
253	0xbef1a7c3	-0.47198305
254	0x3ccbeb2b	0.02489241
255	0x3ef71296	0.48256367

layer2.bias f4 [128]
0	0xbe9ac3e2	-0.30227572
1	0x3e9e13b9	0.30874422
2	0x3b7c15d8	0.0038465168
3	0x3eba838e	0.36428493
4	0xbd63ce28	-0.055616528
5	0xbe271cf2	-0.16319636
6	0x3d3ef7a5	0.04662289
7	0x3da5634b	0.08075579
8	0x3dc427bd	0.09577892
9	0xbdf2941f	-0.11844658
10	0x3d199454	0.037494972
11	0x3eb44975	0.35212293
12	0x3d9a9662	0.075482145
13	0x3cd6e9fd	0.026234621
14	0x3e1be3ef	0.15223669
15	0x3e832358	0.25612903
16	0x3ea3ed59	0.3201702
17	0xbe48dfb3	-0.19616584
18	0x3eb324f2	0.34989125
19	0x3ea9a368	0.33132482
20	0xbc87fff0	-0.016601533
21	0x3eb66973	0.35627326
22	0xbeae172b	-0.3400205
23	0x3e8dca84	0.2769357
24	0x3e00f0df	0.12591885
25	0x3e9cc29f	0.30617234
26	0x3e951f36	0.29125375
27	0x3e24b353	0.16084032
28	0x3e839a3f	0.25703618
29	0x3c00c541	0.007859529
30	0xbd4d436e	-0.050113134
31	0x3deef690	0.11668122
32	0x3e6a3799	0.22872771
33	0x3e9e16ec	0.30876863
34	0x3e1ba66a	0.152002
35	0xbc0fe599	-0.008782768
36	0x3d80b05f	0.0628364
37	0xbd8094f0	-0.062784076
38	0x3e8fd67f	0.28093335
39	0x3e6ae3f4	0.2293852
40	0x3e6169e9	0.22013058
41	0x3e50bd6c	0.20384759
42	0xbe9cadd7	-0.3060138
43	0x3e8a13b1	0.26968148
44	0x3e32c27c	0.17457002
45	0x3ebe9e97	0.3723037
46	0x3d28d528	0.041218907
47	0xbe8c19d0	-0.27363443
48	0xbd45ecac	-0.04832141
49	0x3eb204dc	0.34769332
50	0x3d17981a	0.03701029
51	0xbd090234	-0.033449367
52	0xbd8de10d	-0.06927691
53	0x3e36538d	0.1780531
54	0x3d08371b	0.033255678
55	0xbe909a3b	-0.28242669
56	0xbe7a0080	-0.24414253
57	0x3e8d692f	0.2761931
58	0x3c1ea70d	0.009683383
59	0x3e96eb89	0.29476574
60	0x3e233aac	0.1594035
61	0x3eb80557	0.35941574
62	0x3e92944f	0.28628775
63	0x3dd6080d	0.10450754
64	0x3c9bd181	0.019020798
65	0x3bf63878	0.007514056
66	0x3eb06b66	0.34456939
67	0x3dd05776	0.10172932
68	0x3db3f3bd	0.08786724
69	0x3ccb138f	0.0247896
70	0xbc2282dd	-0.009918896
71	0x3e8debbd	0.27718917
72	0xbea5d9aa	-0.32392627
73	0x3c5dfb50	0.013548687
74	0xbd23f494	-0.04002817
75	0x3e7ce8c8	0.24698174
76	0x3e16bfe8	0.14721644
77	0x3e52a479	0.20570554
78	0xbe8362d3	-0.25661334
79	0x3ea0482c	0.31305063
80	0x3e897bb0	0.2685218
81	0xbd85f110	-0.0654012
82	0xbcc6cf1e	-0.024268683
83	0xbd838ac3	-0.06422951
84	0x3df487d2	0.11939968
85	0xbcf81727	-0.030284477
86	0xbe60c09b	-0.21948473
87	0xbea60c1b	-0.3243111
88	0x3e1ef31c	0.15522426
89	0xbd246d8e	-0.040143542
90	0x3d0bacbc	0.03410028
91	0x3db861fc	0.09003064
92	0x3d60c0cc	0.054871365
93	0x3e7e2804	0.24819952
94	0x3e57220e	0.21009085
95	0xbea93444	-0.33047688
96	0x3eb4c101	0.353035
97	0xbe3ba52e	-0.1832473
98	0x3d68ce80	0.05683756
99	0x3e691938	0.22763526
100	0x3eb1d807	0.34735128
101	0x3e87a9b9	0.26496676
102	0x3da1292c	0.07869181
103	0xbe406f13	-0.18792371
104	0x3e862764	0.26201928
105	0xbcfb4f22	-0.030677382
106	0x3e7e6623	0.2484365
107	0xbd8da26c	-0.06915745
108	0xbe599593	-0.21248464
109	0x3db17c46	0.086662814
110	0xbe8348fe	-0.25641626
111	0x3ea070cd	0.3133606
112	0x3e5c9075	0.21539481
113	0x3eb2d908	0.34931207
114	0x3e36e70b	0.17861573
115	0x3eac2ce1	0.3362799
116	0x3d806224	0.06268719
117	0xbe4eab4d	-0.20182534
118	0x3e8e28ae	0.2776541
119	0x3e29bbf5	0.16575606
120	0x3d8f0ffb	0.0698547
121	0xbea5c5d2	-0.32377487
122	0x3e004960	0.1252799
123	0x3d2be57d	0.041966904
124	0x3e40d55a	0.18831387
125	0x3e26d42c	0.16291875
126	0xbc812953	-0.015766775
127	0x3e9437dc	0.28948867

layer3.weight f4 [8, 128]
0	0xbf50a3b2	-0.8149978
1	0x3eedba32	0.46431118
2	0x3d19ffd6	0.0375975
3	0x3edb8074	0.4287144
4	0x3d587241	0.052843336
5	0xbf25ee68	-0.64816904
6	0xbd00d6b2	-0.03145475
7	0x3c9bccf2	0.019018624
8	0x3e036052	0.12829712
9	0xbf2314b9	-0.63703495
10	0xbe29a637	-0.16567312
11	0x3ed82b78	0.42220664
12	0xbd6c0da1	-0.057630185
13	0x3cbda22d	0.02314862
14	0x3dd611b1	0.10452593
15	0x3eb79280	0.35853958
16	0x3eba876d	0.36431447
17	0xbf2fbc71	-0.68646914
18	0x3ed5c80d	0.4175419
19	0x3e81689f	0.25275132
20	0x3d97ade7	0.07406216
21	0x3efa3a3d	0.48872557
22	0xbf3fd7ac	-0.74938464
23	0x3f5a2cde	0.8522471
24	0xbe78dee6	-0.24303779
25	0x3f5923bf	0.8482017
26	0x3ea2f763	0.31829366
27	0xbe1059c5	-0.14096744
28	0x3ecba126	0.39771384
29	0x3d6e3ef1	0.058165494
30	0xbd71bb35	-0.059016425
31	0xbe38118d	-0.17975445
32	0x3ea7336a	0.32656413
33	0x3ef869bc	0.4851817
34	0x3e9c27ee	0.30499214
35	0x3d966b8a	0.0734473
36	0xbd846ded	-0.06466279
37	0xbd6ecf3c	-0.058303103
38	0x3eb31732	0.34978634
39	0x3ea1c23e	0.31593508
40	0x3e98161c	0.29704368
41	0x3eb7f2d4	0.3592745
42	0xbf57dc65	-0.8432067
43	0x3f578b66	0.8419708
44	0xbe06a5d7	-0.131492
45	0x3ee81439	0.4532793
46	0xbe8fbaf7	-0.2807233
47	0xbf3c85e8	-0.73641825
48	0xbc21808c	-0.009857308
49	0x3eda679d	0.42657176
50	0xbe700375	-0.23438819
51	0xbc7af516	-0.015317222
52	0xbd4c57b8	-0.049888343
53	0x3eb92406	0.36160296
54	0x3cd1b851	0.025600584
55	0xbf4aa5ed	-0.7915943
56	0xbf216c99	-0.6305633
57	0xbdd47ef2	-0.103757754
58	0xbe9a3ca0	-0.30124378
59	0x3ef6b4fb	0.48184952
60	0x3ead4d0c	0.33847845
61	0x3ec0e33f	0.37673375
62	0x3ed24f24	0.41076005
63	0xbe3dc433	-0.18531875
64	0x3deaf992	0.11473383
65	0x3cbfbe09	0.023406046
66	0x3f0459b3	0.5169937
67	0xbe1f43fa	-0.15553275
68	0xbe7d9ffc	-0.2476806
69	0x3c771c33	0.015082407
70	0xbbfb9ed6	-0.007678847
71	0x3ea844cf	0.32864997
72	0xbf4ae9c0	-0.79262924
73	0xbcc286e5	-0.023745963
74	0xbbe826bf	-0.007084697
75	0x3ec0e434	0.37674105
76	0xbe4b76d2	-0.19869545
77	0x3ea14980	0.3150139
78	0xbf4c5bfe	-0.7982787
79	0x3ede9a58	0.4347713
80	0x3ebaf3b7	0.36514065
81	0xbd0e296b	-0.034707468
82	0x3d35849f	0.04431593
83	0xbd2a1517	-0.04152402
84	0xbe7a78b6	-0.2446011
85	0x3dc103ae	0.0942453
86	0xbf4c7953	-0.79872626
87	0xbf5468e3	-0.82972544
88	0x3e8ffa42	0.2812062
89	0xbd8f0c1e	-0.06984733
90	0x3c1dc271	0.009628878
91	0xbdf5d312	-0.12003149
92	0x3ea76a11	0.3269811
93	0x3e9cd932	0.30634457
94	0x3e8bef65	0.2733108
95	0xbf4cf6a2	-0.8006383
96	0x3ede6ffb	0.4344481
97	0xbf376c4c	-0.7164962
98	0x3d5a5866	0.05330696
99	0x3ea7670a	0.326958
100	0x3f008380	0.50200653
101	0x3ea7380e	0.32659954
102	0xbe50c5c8	-0.20387948
103	0xbf434355	-0.76274616
104	0x3e8a5752	0.27019745
105	0x3d08ed43	0.033429395
106	0x3f4f3627	0.80942005
107	0x3d8b2ab4	0.06795254
108	0xbf33a47b	-0.7017285
109	0xbded4a24	-0.11586407
110	0xbf36e377	-0.71440834
111	0x3e9aa972	0.30207402
112	0x3ea104f0	0.3144908
113	0x3e982244	0.29713643
114	0xbe712373	-0.23548679
115	0x3f59b7eb	0.8504626
116	0xbc9f2ee0	-0.019431531
117	0xbf3c0719	-0.7344833
118	0x3eb63d9e	0.35593885
119	0xbe6097f2	-0.21932963
120	0x3b1b8e94	0.0023736106
121	0xbf4110a1	-0.75416
122	0xbda902c6	-0.08252482
123	0x3ce96176	0.028488856
124	0x3e680f3f	0.22662066
125	0x3ee8126a	0.4532655
126	0xbda846a1	-0.082165964
127	0x3f562112	0.8364421
128	0xbf549f2b	-0.8305537
129	0x3ee4d10c	0.4469074
130	0x3cf52c7c	0.029928438
131	0x3f03c5ce	0.514737
132	0xbc1bec6f	-0.009516819
133	0xbf0e0f37	-0.55491966
134	0xbcde4ace	-0.027135279
135	0x3ddc5716	0.10758798
136	0x3d919beb	0.07109817
137	0xbf44c957	-0.7686972
138	0xbd01fce1	-0.031735305
139	0x3eb749fe	0.3579864
140	0xbcb1e77e	-0.02171683
141	0xbcb2d333	-0.021829223
142	0xbc96d3b6	-0.018411499
143	0x3eb3fe1c	0.35154808
144	0x3ecae2e7	0.39626238
145	0xbf3355fd	-0.7005308
146	0x3eca4808	0.3950808
147	0x3e9a4eb2	0.30138165
148	0x3d85584d	0.06510983
149	0x3ef2d838	0.47430587
150	0xbf4edbdb	-0.8080422
151	0x3f56c245	0.8389018
152	0xbe48ade8	-0.1959759
153	0x3f39b2d1	0.7253848
154	0x3eaed689	0.34148052
155	0xbe277018	-0.16351354
156	0x3eba4e70	0.36387968
157	0x3caf6eac	0.021415077
158	0xbd0cfdcd	-0.03442173
159	0xbe88fa28	-0.26753354
160	0x3e756747	0.23965178
161	0x3ee767b7	0.45196316
162	0x3e6a62a1	0.22889186
163	0xbcb964ec	-0.022631131
164	0xbb13c6bd	-0.0022548877
165	0xbda9621d	-0.08270667
166	0x3ebf11f2	0.3731838
167	0x3eab526b	0.33461317
168	0x3ec16919	0.37775496
169	0x3ec1d2b4	0.37856066
170	0xbf4012a5	-0.7502845
171	0x3f3fda6a	0.7494265
172	0xbdf1a617	-0.11799257
173	0x3f026fa5	0.50951606
174	0xbddd9da1	-0.10821081
175	0xbf50c3c0	-0.8154869
176	0x3d1739d0	0.03692037
177	0x3ed82de4	0.42222512
178	0xbe684c83	-0.22685437
179	0x3d26cd22	0.040722974
180	0xbd39c649	-0.045355115
181	0x3eb65f19	0.3561943
182	0xbdb0cfc5	-0.08633379
183	0xbf4dc967	-0.8038544
184	0xbf371904	-0.71522546
185	0xbe68f682	-0.22750285
186	0xbe1cb643	-0.15303902
187	0x3ed4b530	0.41544485
188	0x3ea342c9	0.3188689
189	0x3eb75380	0.35805893
190	0x3ec9f589	0.3944514
191	0xbe515e4f	-0.20446132
192	0x3ce9124f	0.028451113
193	0xbd602fcc	-0.054733083
194	0x3f04c557	0.51863617
195	0xbe2a80f7	-0.16650759
196	0xbe88be18	-0.2670753
197	0x3bc85f59	0.006114882
198	0xbcc1a9ac	-0.023640476
199	0x3ec027c6	0.37530345
200	0xbf3e202c	-0.7426784
201	0xbbe36a5d	-0.0069401697
202	0xbd191c0a	-0.037380256
203	0x3ececb84	0.40389645
204	0xbe415ee3	-0.18883853
205	0x3e9a1694	0.3009535
206	0xbf43841c	-0.7637346
207	0x3f06f1af	0.5271253
208	0x3eb91c17	0.36154243
209	0xbd45bd0e	-0.048276
210	0xbd76e34c	-0.06027536
211	0x3d7188fa	0.05896852
212	0xbe23fec3	-0.16015153
213	0x3d95875a	0.07301207
214	0xbf4cd4af	-0.8001203
215	0xbf4c7c13	-0.7987682
216	0x3eab6242	0.33473402
217	0xbe343aee	-0.17600605
218	0x3d68ffae	0.05688446
219	0xbe347cb1	-0.17625691
220	0x3ea43cc7	0.3207762
221	0x3eb9d2ac	0.36293542
222	0x3e5f910d	0.21832676
223	0xbf54bee8	-0.831038
224	0x3f00be91	0.5029078
225	0xbf382f65	-0.7194732
226	0x3d51f6de	0.05126082
227	0x3e9a6c7a	0.30160886
228	0x3ef9e88d	0.48810235
229	0x3e965561	0.29362014
230	0xbe37350b	-0.17891328
231	0xbf28588c	-0.6576011
232	0x3eda57f6	0.42645234
233	0xbd682537	-0.056676116
234	0x3f3eb2a3	0.7449133
235	0x3d72ea18	0.05930528
236	0xbf39af12	-0.7253276
237	0xbe198ef6	-0.14995942
238	0xbf464ff3	-0.7746574
239	0x3eb84fe5	0.35998455
240	0x3ea672ff	0.3250961
241	0x3ec5530d	0.38539925
242	0xbe8fdbc4	-0.28097355
243	0x3f535bae	0.8256177
244	0xbc994480	-0.018709421
245	0xbf2bce58	-0.6711173
246	0x3e9c2222	0.3049479
247	0xbe84f1b5	-0.25965658
248	0x3d901d09	0.07036788
249	0xbf447a0d	-0.76748735
250	0xbdfce104	-0.12347606
251	0x3d9679bf	0.0734744
252	0x3e35a265	0.1773773
253	0x3ee27984	0.44233334
254	0x3d5ba137	0.053620543
255	0x3f5ac144	0.8545115

layer3.bias f4 [8]
0	0x3e7eb9c5	0.24875553
1	0x3e2d3469	0.16914524
2	0x3e47c527	0.19508801
3	0x3e52ef50	0.20599103
4	0x3dca6071	0.09881676
5	0x3e0cbfaa	0.13744989
6	0x3e207e50	0.15673184
7	0x3e0e05eb	0.13869445
